ece793/tutorial-intro-pytorch/our_model.tar (torch, 2144 bytes, 3 tensors)

linear1.weight f4 [4, 2]
000000 5d 9d 26 c0 f3 11 55 c0 6b 1c fd 3f 11 16 1a c0
       -2.6033547 -3.3292205 1.9774297 -2.4075968
000010 47 31 26 c0 0a 9f cb bf 05 59 12 bf 8d 60 4f bf
       -2.5967577 -1.590791 -0.57167083 -0.810067

linear1.bias f4 [4]
000000 0d 14 b9 3f f4 18 b3 bf f2 3d 3f 40 31 c2 0c be
       1.4459244 -1.399199 2.9881558 -0.13745953

linear2.weight f4 [1, 4]
000000 d3 ca 8e c0 ec a9 45 40 c2 e5 8c 40 c6 fb 0c be
       -4.462259 3.0884962 4.4030466 -0.13767919
